music_transcription/models/basic_pitch_43844_model.onnx (onnx, 204064 bytes, 13 tensors)

StatefulPartitionedCall/model_1/cq_t2010v2_1/conv1d_21/ExpandDims_1:0 f4 [36, 1, 1, 256]
0.0 0.0 0.0 0.0 0.0 0.0 0.0 0.0
0.0 0.0 0.0 0.0 0.0 0.0 0.0 0.0
0.0 0.0 0.0 0.0 0.0 -1.6346032e-06 -4.748616e-06 1.3252767e-05
2.217619e-05 -3.20694e-05 -5.6092184e-05 5.2391628e-05 0.00010880515 -6.7733876e-05 -0.0001809167 7.121479e-05
0.0002712017 -5.598354e-05 -0.00037658133 1.5656231e-05 0.00049219176 5.5257682e-05 -0.0006115466 -0.00016095878
0.00072678825 0.00030400962 -0.00082901784 -0.00048505215 0.00090869196 0.0007026052 -0.00095606956 -0.00095295307
0.00096169085 0.0012301332 -0.00091686804 -0.0015260269 0.00081416767 0.0018305505 -0.00064786273 -0.0021319466
0.00041433494 0.002417162 -0.00011240824 -0.0026723011 -0.0002564026 0.0028831416 0.00068774144 -0.003035689
-0.0011743682 0.003116753 0.0017062293 -0.003114521 -0.0022706431 0.0030191077 0.0028525975 -0.0028230585
-0.003435149 0.002521783 0.0039999173 -0.0021139053 -0.0045276536 0.0016015071 0.0049988693 -0.000990261
-0.005394498 0.00028943512 0.0056965733 0.00048822752 -0.0058888947 -0.0013267575 0.0059576565 0.00220733
-0.0058920193 -0.0031087478 0.005684598 0.0040080226 -0.005331852 -0.004881037 0.004834356 0.005703266
-0.0041969432 -0.006450531 0.0034287085 0.0070997723 -0.002542876 -0.007629794 0.0015565222 0.008021977
-0.00049017166 -0.008260922 -0.00063273095 0.008335 0.0017864531 -0.0082368 -0.002943692 0.007963444
0.004076357 -0.0075167655 -0.0051563852 0.0069033434 0.006156577 -0.0061343866 -0.0070514022 0.00522547
0.00781778 -0.0041961307 -0.008435771 0.003069342 0.008889196 -0.00187087 -0.009166128 0.00062854344
0.009259259 0.00062854344 -0.009166128 -0.00187087 0.008889196 0.003069342 -0.008435771 -0.0041961307
0.00781778 0.00522547 -0.0070514022 -0.0061343866 0.006156577 0.0069033434 -0.0051563852 -0.0075167655
0.004076357 0.007963444 -0.002943692 -0.0082368 0.0017864531 0.008335 -0.00063273095 -0.008260922
-0.00049017166 0.008021977 0.0015565222 -0.007629794 -0.002542876 0.0070997723 0.0034287085 -0.006450531
-0.0041969432 0.005703266 0.004834356 -0.004881037 -0.005331852 0.0040080226 0.005684598 -0.0031087478
-0.0058920193 0.00220733 0.0059576565 -0.0013267575 -0.0058888947 0.00048822752 0.0056965733 0.00028943512
-0.005394498 -0.000990261 0.0049988693 0.0016015071 -0.0045276536 -0.0021139053 0.0039999173 0.002521783
-0.003435149 -0.0028230585 0.0028525975 0.0030191077 -0.0022706431 -0.003114521 0.0017062293 0.003116753
-0.0011743682 -0.003035689 0.00068774144 0.0028831416 -0.0002564026 -0.0026723011 -0.00011240824 0.002417162
0.00041433494 -0.0021319466 -0.00064786273 0.0018305505 0.00081416767 -0.0015260269 -0.00091686804 0.0012301332
0.00096169085 -0.00095295307 -0.00095606956 0.0007026052 0.00090869196 -0.00048505215 -0.00082901784 0.00030400962
0.00072678825 -0.00016095878 -0.0006115466 5.5257682e-05 0.00049219176 1.5656231e-05 -0.00037658133 -5.598354e-05
0.0002712017 7.121479e-05 -0.0001809167 -6.7733876e-05 0.00010880515 5.2391628e-05 -5.6092184e-05 -3.20694e-05
2.217619e-05 1.3252767e-05 -4.748616e-06 -1.6346032e-06 0.0 0.0 0.0 0.0
0.0 0.0 0.0 0.0 0.0 0.0 0.0 0.0
0.0 0.0 0.0 0.0 0.0 0.0 0.0 0.0
00000000: 0000 0000 0000 0000 0000 0000 0000 0000
00000010: 0000 0000 0000 0000 0000 0000 0000 0000
00000020: 0000 0000 0000 0000 0000 0000 0000 0000
00000030: 0000 0000 0000 0000 0000 0000 0000 0000
00000040: 0000 0000 0000 0000 0000 0000 0000 0000
00000050: 0000 0000 8a64 dbb5 4d56 9fb6 3358 5e37
00000060: 0107 ba37 4282 06b8 8644 6bb8 15bf 5b38
00000070: 522e e438 590c 8eb8 75b4 3db9 2659 9538
00000080: 1330 8e39 decf 6ab8 e46f c5b9 8055 8337
00000090: 6e06 013a 7cc4 6738 3350 20ba 0bc7 28b9
000000a0: ef85 3e3a 7b63 9f39 7252 59ba 994e feb9
000000b0: 4935 6e3a 092f 383a bea0 7aba 99cf 79ba
000000c0: fb19 7c3a 6c3c a13a f959 70ba f704 c8ba
000000d0: de6d 553a 15ef ef3a 55d5 29ba 21b8 0bbb
000000e0: 183b d939 4069 1e3b b7bc ebb8 c621 2fbb
000000f0: c66d 86b9 17f3 3c3b 8c49 343a 69f2 46bb
00000100: 42ed 99ba 7042 4c3b 8ea3 df3a fe1c 4cbb
00000110: 12cf 14bb 39dc 453b a5f2 3a3b 1003 39bb
00000120: 3d20 61bb 8044 253b bd11 833b 7289 0abb
00000130: b65c 94bb a9e9 d13a 8ecd a33b a5cb 81ba
00000140: 54c4 b0bb 53bf 9739 52aa ba3b caf8 ff39
00000150: a1f7 c0bb 98e6 adba 7238 c33b daa8 103b
00000160: d711 c1bb 22bc 4bbb dd45 ba3b bb55 833b
00000170: d1b6 aebb 1bf1 9fbb 8469 9e3b 76e2 ba3b
00000180: 8386 89bb fa5e d3bb 2fb4 603b 35a5 e83b
00000190: 61a6 26bb 5a03 fabb 3804 cc3a 9c6e 033c
000001a0: dd7e 00ba d158 07bc dbdd 25ba 868f 083c
000001b0: 6b27 ea3a a5f3 06bc f5ea 40bb 1b79 023c
000001c0: f692 853b 334f f6bb e5f6 a8bb 7135 e23b
000001d0: 1cbd c93b f702 c9bb 730f e7bb 6b3a ab3b
000001e0: 2516 003c b27f 89bb 3036 0abc 0427 493b
000001f0: fea3 113c fb37 f5ba 872d 16bc d6c4 243a
00000200: 26b4 173c d6c4 243a 872d 16bc fb37 f5ba
00000210: fea3 113c 0427 493b 3036 0abc b27f 89bb
00000220: 2516 003c 6b3a ab3b 730f e7bb f702 c9bb
00000230: 1cbd c93b 7135 e23b e5f6 a8bb 334f f6bb
00000240: f692 853b 1b79 023c f5ea 40bb a5f3 06bc
00000250: 6b27 ea3a 868f 083c dbdd 25ba d158 07bc
00000260: dd7e 00ba 9c6e 033c 3804 cc3a 5a03 fabb
00000270: 61a6 26bb 35a5 e83b 2fb4 603b fa5e d3bb
00000280: 8386 89bb 76e2 ba3b 8469 9e3b 1bf1 9fbb
00000290: d1b6 aebb bb55 833b dd45 ba3b 22bc 4bbb
000002a0: d711 c1bb daa8 103b 7238 c33b 98e6 adba
000002b0: a1f7 c0bb caf8 ff39 52aa ba3b 53bf 9739
000002c0: 54c4 b0bb a5cb 81ba 8ecd a33b a9e9 d13a
000002d0: b65c 94bb 7289 0abb bd11 833b 8044 253b
000002e0: 3d20 61bb 1003 39bb a5f2 3a3b 39dc 453b
000002f0: 12cf 14bb fe1c 4cbb 8ea3 df3a 7042 4c3b
00000300: 42ed 99ba 69f2 46bb 8c49 343a 17f3 3c3b
00000310: c66d 86b9 c621 2fbb b7bc ebb8 4069 1e3b
00000320: 183b d939 21b8 0bbb 55d5 29ba 15ef ef3a
00000330: de6d 553a f704 c8ba f959 70ba 6c3c a13a
00000340: fb19 7c3a 99cf 79ba bea0 7aba 092f 383a
00000350: 4935 6e3a 994e feb9 7252 59ba 7b63 9f39
00000360: ef85 3e3a 0bc7 28b9 3350 20ba 7cc4 6738
00000370: 6e06 013a 8055 8337 e46f c5b9 decf 6ab8
00000380: 1330 8e39 2659 9538 75b4 3db9 590c 8eb8
00000390: 522e e438 15bf 5b38 8644 6bb8 4282 06b8
000003a0: 0107 ba37 3358 5e37 4d56 9fb6 8a64 dbb5
000003b0: 0000 0000 0000 0000 0000 0000 0000 0000
000003c0: 0000 0000 0000 0000 0000 0000 0000 0000
000003d0: 0000 0000 0000 0000 0000 0000 0000 0000
000003e0: 0000 0000 0000 0000 0000 0000 0000 0000
000003f0: 0000 0000 0000 0000 0000 0000 0000 0000

StatefulPartitionedCall/model_1/cq_t2010v2_1/conv1d_19/ExpandDims_1:0 f4 [36, 1, 1, 256]
0.0 0.0 0.0 0.0 0.0 0.0 0.0 0.0
0.0 0.0 0.0 0.0 0.0 0.0 0.0 0.0
0.0 0.0 0.0 0.0 0.0 1.0789101e-06 -6.228987e-06 -1.1607228e-05
2.2094133e-05 3.6890855e-05 -4.2433545e-05 -8.001959e-05 6.111096e-05 0.00014246907 -7.1391005e-05 -0.00022393682
6.635322e-05 0.0003222683 -3.932583e-05 -0.0004334776 -1.568027e-05 0.00055186363 0.00010355761 -0.00067021773
-0.00022772755 0.00078011595 0.00038982296 -0.000872284 -0.00058944407 0.0009370214 0.0008240003 -0.00096466654
-0.0010886478 0.0009460844 0.001376328 -0.0008731555 -0.0016779095 0.0007392456 0.00198243 -0.00053963583
-0.0022774315 0.00027189212 0.0025493787 6.384128e-05 -0.0027841453 -0.0004646412 0.002967552 0.00092470786
-0.0030859336 -0.0014353783 0.003126718 0.001985255 -0.0030789904 -0.002560447 0.0029340212 0.00314492
-0.002685739 -0.003720946 0.0023311225 0.0042696344 -0.0018705014 -0.004771536 0.0013077443 0.0052072885
-0.00065032823 -0.0055582915 -9.071785e-05 0.0058073793 0.0009009988 -0.005939474 -0.0017630641 0.0059421854
0.0026568354 -0.0058063464 -0.0035601421 0.0055264533 0.0044493442 -0.0051009962 -0.005300028 0.0045326697
0.006087745 -0.0038284461 -0.006788782 0.0029995108 0.0073809177 -0.0020610567 -0.00784416 0.0010319427
0.008161426 6.577336e-05 -0.008319136 -0.001207418 0.008307724 0.0023663796 -0.008122014 -0.0035148605
0.0077614696 0.0046246806 -0.007230303 -0.0056681046 0.006537432 0.006618669 -0.0056962892 -0.0074519743
0.0047244905 0.008146429 -0.0036433644 -0.008683905 0.0024773665 0.009050293 -0.0012533901 -0.009235938
0.0 0.009235938 0.0012533901 -0.009050293 -0.0024773665 0.008683905 0.0036433644 -0.008146429
-0.0047244905 0.0074519743 0.0056962892 -0.006618669 -0.006537432 0.0056681046 0.007230303 -0.0046246806
-0.0077614696 0.0035148605 0.008122014 -0.0023663796 -0.008307724 0.001207418 0.008319136 -6.577336e-05
-0.008161426 -0.0010319427 0.00784416 0.0020610567 -0.0073809177 -0.0029995108 0.006788782 0.0038284461
-0.006087745 -0.0045326697 0.005300028 0.0051009962 -0.0044493442 -0.0055264533 0.0035601421 0.0058063464
-0.0026568354 -0.0059421854 0.0017630641 0.005939474 -0.0009009988 -0.0058073793 9.071785e-05 0.0055582915
0.00065032823 -0.0052072885 -0.0013077443 0.004771536 0.0018705014 -0.0042696344 -0.0023311225 0.003720946
0.002685739 -0.00314492 -0.0029340212 0.002560447 0.0030789904 -0.001985255 -0.003126718 0.0014353783
0.0030859336 -0.00092470786 -0.002967552 0.0004646412 0.0027841453 -6.384128e-05 -0.0025493787 -0.00027189212
0.0022774315 0.00053963583 -0.00198243 -0.0007392456 0.0016779095 0.0008731555 -0.001376328 -0.0009460844
0.0010886478 0.00096466654 -0.0008240003 -0.0009370214 0.00058944407 0.000872284 -0.00038982296 -0.00078011595
0.00022772755 0.00067021773 -0.00010355761 -0.00055186363 1.568027e-05 0.0004334776 3.932583e-05 -0.0003222683
-6.635322e-05 0.00022393682 7.1391005e-05 -0.00014246907 -6.111096e-05 8.001959e-05 4.2433545e-05 -3.6890855e-05
-2.2094133e-05 1.1607228e-05 6.228987e-06 -1.0789101e-06 0.0 0.0 0.0 0.0
0.0 0.0 0.0 0.0 0.0 0.0 0.0 0.0
0.0 0.0 0.0 0.0 0.0 0.0 0.0 0.0
00000000: 0000 0000 0000 0000 0000 0000 0000 0000
00000010: 0000 0000 0000 0000 0000 0000 0000 0000
00000020: 0000 0000 0000 0000 0000 0000 0000 0000
00000030: 0000 0000 0000 0000 0000 0000 0000 0000
00000040: 0000 0000 0000 0000 0000 0000 0000 0000
00000050: 0000 0000 12cf 9035 9702 d1b6 aabc 42b7
00000060: ca56 b937 41bb 1a38 acfa 31b8 31d0 a7b8
00000070: b228 8038 c063 1539 c1b7 95b8 95d0 6ab9
00000080: 1d27 8b38 1ef6 a839 caf1 24b8 6144 e3b9
00000090: 2089 83b7 f1aa 103a 122d d938 8db1 2fba
000000a0: 26ca 6eb9 b280 4c3a 2761 cc39 fda9 64ba
000000b0: ec84 1aba 71a2 753a b901 583a ade1 7cba
000000c0: f5b0 8eba a602 783a e765 b43a 79e4 64ba
000000d0: 4ded dbba efc9 413a a8eb 013b 5976 0dba
000000e0: f640 15bb be8c 8e39 7a13 273b 87e2 8538
000000f0: 3576 36bb 169b f3b9 437b 423b 1868 723a
00000100: 603d 4abb 4e23 bcba a0e9 4c3b 0d1b 023b
00000110: e3c8 49bb 2ccd 27bb b548 403b 011b 4e3b
00000120: 3903 30bb 1ddb 73bb bfc5 183b 4ae8 8b3b
00000130: 9d2b f5ba 8c5a 9cbb 9e68 ab3a e7a1 aa3b
00000140: ca7a 2aba 5422 b6bb c63f beb8 d44b be3b
00000150: 0231 6c3a eb9f c2bb 9d16 e7ba aab6 c23b
00000160: 4d1e 2e3b 2a43 bebb 4651 69bb 4017 b53b
00000170: cecb 913b 4226 a7bb dbab adbb ca86 943b
00000180: b57b c73b abe6 7abb 6e74 debb 7193 443b
00000190: a0db f13b cb12 07bb cb84 00bc 4042 873a
000001a0: 80b7 053c ceef 8938 fc4c 08bc 3a42 9eba
000001b0: 1f1d 083c 4315 1b3b 3212 05bc 9359 66bb
000001c0: ed53 fe3b a28a 973b 2dec ecbb 82bb b9bb
000001d0: f437 d63b 6be1 d83b f0a7 babb b12f f4bb
000001e0: e6cf 9a3b 9a78 053c 83c5 6ebb f046 0ebc
000001f0: 505b 223b ae47 143c cb48 a4ba 5552 17bc
00000200: 0000 0000 5552 173c cb48 a43a ae47 14bc
00000210: 505b 22bb f046 0e3c 83c5 6e3b 9a78 05bc
00000220: e6cf 9abb b12f f43b f0a7 ba3b 6be1 d8bb
00000230: f437 d6bb 82bb b93b 2dec ec3b a28a 97bb
00000240: ed53 febb 9359 663b 3212 053c 4315 1bbb
00000250: 1f1d 08bc 3a42 9e3a fc4c 083c ceef 89b8
00000260: 80b7 05bc 4042 87ba cb84 003c cb12 073b
00000270: a0db f1bb 7193 44bb 6e74 de3b abe6 7a3b
00000280: b57b c7bb ca86 94bb dbab ad3b 4226 a73b
00000290: cecb 91bb 4017 b5bb 4651 693b 2a43 be3b
000002a0: 4d1e 2ebb aab6 c2bb 9d16 e73a eb9f c23b
000002b0: 0231 6cba d44b bebb c63f be38 5422 b63b
000002c0: ca7a 2a3a e7a1 aabb 9e68 abba 8c5a 9c3b
000002d0: 9d2b f53a 4ae8 8bbb bfc5 18bb 1ddb 733b
000002e0: 3903 303b 011b 4ebb b548 40bb 2ccd 273b
000002f0: e3c8 493b 0d1b 02bb a0e9 4cbb 4e23 bc3a
00000300: 603d 4a3b 1868 72ba 437b 42bb 169b f339
00000310: 3576 363b 87e2 85b8 7a13 27bb be8c 8eb9
00000320: f640 153b 5976 0d3a a8eb 01bb efc9 41ba
00000330: 4ded db3a 79e4 643a e765 b4ba a602 78ba
00000340: f5b0 8e3a ade1 7c3a b901 58ba 71a2 75ba
00000350: ec84 1a3a fda9 643a 2761 ccb9 b280 4cba
00000360: 26ca 6e39 8db1 2f3a 122d d9b8 f1aa 10ba
00000370: 2089 8337 6144 e339 caf1 2438 1ef6 a8b9
00000380: 1d27 8bb8 95d0 6a39 c1b7 9538 c063 15b9
00000390: b228 80b8 31d0 a738 acfa 3138 41bb 1ab8
000003a0: ca56 b9b7 aabc 4237 9702 d136 12cf 90b5
000003b0: 0000 0000 0000 0000 0000 0000 0000 0000
000003c0: 0000 0000 0000 0000 0000 0000 0000 0000
000003d0: 0000 0000 0000 0000 0000 0000 0000 0000
000003e0: 0000 0000 0000 0000 0000 0000 0000 0000
000003f0: 0000 0000 0000 0000 0000 0000 0000 0000

StatefulPartitionedCall/model_1/cq_t2010v2_1/conv1d_17/ExpandDims_1:0 f4 [1, 1, 1, 256]
-0.00011111024 -0.00011278991 0.00011466785 0.00011720297 -0.0001199632 -0.00012341545 0.00012711709 0.00013154917
-0.00013625245 -0.00014172817 0.00014749443 0.00015407878 -0.00016097058 -0.0001687297 0.00017681085 0.00018581218
-0.00019514789 -0.00020546024 0.00021611716 0.00022781083 -0.00023985727 -0.0002530042 0.00026651024 0.00028118413
-0.00029622184 -0.0003124985 0.00032914217 0.0003470996 -0.00036542595 -0.0003851447 0.0004052333 0.00042679685
-0.00044873042 -0.00047222545 0.00049609033 0.00052160723 -0.0005474938 -0.0005751273 0.0006031306 0.00063298026
-0.0006632006 -0.00069537153 0.00072791544 0.000762519 -0.00079749984 -0.00083465496 0.0008721941 0.00091202796
-0.0009522561 -0.0009949057 0.0010379639 0.0010835774 -0.0011296192 -0.0011783579 0.0012275506 0.0012795905
-0.0013321182 -0.0013876532 0.0014437184 0.0015029624 -0.0015627904 -0.001625981 0.0016898222 0.0017572248
-0.00182536 -0.0018972725 0.001970018 0.0020467767 -0.0021244904 -0.0022064769 0.0022895662 0.0023772153
-0.0024661466 -0.0025599578 0.0026552675 0.0027558166 -0.0028581254 -0.0029660813 0.0030761124 0.0031922557
-0.0033108564 -0.0034361056 0.0035642749 0.003699717 -0.0038386425 -0.0039855745 0.0041366774 0.004296658
-0.0044616554 -0.0046365755 0.0048175594 0.0050097345 -0.0052092783 -0.005421574 0.005642882 0.005878886
-0.006125993 -0.0063902563 0.0066683176 0.0069666975 -0.007282403 -0.0076225675 0.007984753 0.008376932
-0.008797512 -0.009255662 0.0097510945 0.010294751 -0.010888418 -0.011545796 0.01227206 0.013085442
-0.013996936 -0.01503267 0.016214257 0.017582666 -0.019180486 -0.021079393 0.023368126 0.026190624
-0.029753784 -0.034406126 0.040734712 0.049864296 -0.06418781 -0.08994672 0.15000066 0.45014173
0.45014173 0.15000066 -0.08994672 -0.06418781 0.049864296 0.040734712 -0.034406126 -0.029753784
0.026190624 0.023368126 -0.021079393 -0.019180486 0.017582666 0.016214257 -0.01503267 -0.013996936
0.013085442 0.01227206 -0.011545796 -0.010888418 0.010294751 0.0097510945 -0.009255662 -0.008797512
0.008376932 0.007984753 -0.0076225675 -0.007282403 0.0069666975 0.0066683176 -0.0063902563 -0.006125993
0.005878886 0.005642882 -0.005421574 -0.0052092783 0.0050097345 0.0048175594 -0.0046365755 -0.0044616554
0.004296658 0.0041366774 -0.0039855745 -0.0038386425 0.003699717 0.0035642749 -0.0034361056 -0.0033108564
0.0031922557 0.0030761124 -0.0029660813 -0.0028581254 0.0027558166 0.0026552675 -0.0025599578 -0.0024661466
0.0023772153 0.0022895662 -0.0022064769 -0.0021244904 0.0020467767 0.001970018 -0.0018972725 -0.00182536
0.0017572248 0.0016898222 -0.001625981 -0.0015627904 0.0015029624 0.0014437184 -0.0013876532 -0.0013321182
0.0012795905 0.0012275506 -0.0011783579 -0.0011296192 0.0010835774 0.0010379639 -0.0009949057 -0.0009522561
0.00091202796 0.0008721941 -0.00083465496 -0.00079749984 0.000762519 0.00072791544 -0.00069537153 -0.0006632006
0.00063298026 0.0006031306 -0.0005751273 -0.0005474938 0.00052160723 0.00049609033 -0.00047222545 -0.00044873042
0.00042679685 0.0004052333 -0.0003851447 -0.00036542595 0.0003470996 0.00032914217 -0.0003124985 -0.00029622184
0.00028118413 0.00026651024 -0.0002530042 -0.00023985727 0.00022781083 0.00021611716 -0.00020546024 -0.00019514789
0.00018581218 0.00017681085 -0.0001687297 -0.00016097058 0.00015407878 0.00014749443 -0.00014172817 -0.00013625245
0.00013154917 0.00012711709 -0.00012341545 -0.0001199632 0.00011720297 0.00011466785 -0.00011278991 -0.00011111024
00000000: db03 e9b8 9f89 ecb8 d579 f038 deca f538
00000010: c194 fbb8 1569 01b9 bc4a 0539 76f0 0939
00000020: fdde 0eb9 de9c 14b9 bca8 1a39 3590 2139
00000030: 36ca 28b9 09ed 30b9 4d66 3939 94d6 4239
00000040: 9da0 4cb9 d070 57b9 829d 6239 81e0 6e39
00000050: 3282 7bb9 a6a5 84b9 66ba 8b39 e56b 9339
00000060: 394e 9bb9 d7d6 a3b9 b790 ac39 ebfa b539
00000070: a496 bfb9 3fed c9b9 7e75 d439 b4c3 df39
00000080: 9443 ebb9 0795 f7b9 0f0c 023a 78bc 083a
00000090: b085 0fba 24c4 16ba 691b 1e3a 96ee 253a
000000a0: a4da 2dba 9849 36ba 94d1 3e3a c9e3 473a
000000b0: 4f0f 51ba bfcc 5aba f5a3 643a 2915 6f3a
000000c0: d3a0 79ba 7f67 82ba 4a0c 883a d306 8e3a
000000d0: bb0f 94ba 2173 9aba c3e5 a03a efb7 a73a
000000e0: 789a aeba eae1 b5ba 273b bd3a 0dff c43a
000000f0: 8bd6 ccba de1e d5ba 067d dd3a ae52 e63a
00000100: eb40 efba e7ad f8ba 6b1b 013b 3723 063b
00000110: 093b 0bbb 8a9a 10bb 8c0c 163b 0ecb 1b3b
00000120: 139f 21bb f7c4 27bb ff03 2e3b ee9a 343b
00000130: 634f 3bbb 9662 42bb 9a98 493b 2a35 513b
00000140: f4fa 58bb 4930 61bb 9c96 693b f476 723b
00000150: bc91 7bbb 6c99 82bb f78c 873b fbca 8c3b
00000160: 1433 92bb 6aee 97bb 9edc 9d3b b328 a43b
00000170: 98b2 aabb 76a7 b1bb ede7 b83b aca3 c03b
00000180: 8ebc c8bb 5b65 d1bb e781 da3b e548 e43b
00000190: 39a1 eebb bbc6 f9bb 7bd2 023c 663f 093c
000001a0: 7123 10bc 0fa5 17bc 0ec3 1f3c 51ab 283c
000001b0: 5665 32bc 942a 3dbc c010 493c 5264 563c
000001c0: 6853 65bc 974b 76bc c3d3 843c 8609 903c
000001d0: 6520 9dbc b1ae acbc 836e bf3c b88d d63c
000001e0: 35be f3bc 70ed 0cbd 71d9 263d 813e 4c3d
000001f0: e674 83bd fc35 b8bd c699 193e fa78 e63e
00000200: fa78 e63e c699 193e fc35 b8bd e674 83bd
00000210: 813e 4c3d 71d9 263d 70ed 0cbd 35be f3bc
00000220: b88d d63c 836e bf3c b1ae acbc 6520 9dbc
00000230: 8609 903c c3d3 843c 974b 76bc 6853 65bc
00000240: 5264 563c c010 493c 942a 3dbc 5665 32bc
00000250: 51ab 283c 0ec3 1f3c 0fa5 17bc 7123 10bc
00000260: 663f 093c 7bd2 023c bbc6 f9bb 39a1 eebb
00000270: e548 e43b e781 da3b 5b65 d1bb 8ebc c8bb
00000280: aca3 c03b ede7 b83b 76a7 b1bb 98b2 aabb
00000290: b328 a43b 9edc 9d3b 6aee 97bb 1433 92bb
000002a0: fbca 8c3b f78c 873b 6c99 82bb bc91 7bbb
000002b0: f476 723b 9c96 693b 4930 61bb f4fa 58bb
000002c0: 2a35 513b 9a98 493b 9662 42bb 634f 3bbb
000002d0: ee9a 343b ff03 2e3b f7c4 27bb 139f 21bb
000002e0: 0ecb 1b3b 8c0c 163b 8a9a 10bb 093b 0bbb
000002f0: 3723 063b 6b1b 013b e7ad f8ba eb40 efba
00000300: ae52 e63a 067d dd3a de1e d5ba 8bd6 ccba
00000310: 0dff c43a 273b bd3a eae1 b5ba 789a aeba
00000320: efb7 a73a c3e5 a03a 2173 9aba bb0f 94ba
00000330: d306 8e3a 4a0c 883a 7f67 82ba d3a0 79ba
00000340: 2915 6f3a f5a3 643a bfcc 5aba 4f0f 51ba
00000350: c9e3 473a 94d1 3e3a 9849 36ba a4da 2dba
00000360: 96ee 253a 691b 1e3a 24c4 16ba b085 0fba
00000370: 78bc 083a 0f0c 023a 0795 f7b9 9443 ebb9
00000380: b4c3 df39 7e75 d439 3fed c9b9 a496 bfb9
00000390: ebfa b539 b790 ac39 d7d6 a3b9 394e 9bb9
000003a0: e56b 9339 66ba 8b39 a6a5 84b9 3282 7bb9
000003b0: 81e0 6e39 829d 6239 d070 57b9 9da0 4cb9
000003c0: 94d6 4239 4d66 3939 09ed 30b9 36ca 28b9
000003d0: 3590 2139 bca8 1a39 de9c 14b9 fdde 0eb9
000003e0: 76f0 0939 bc4a 0539 1569 01b9 c194 fbb8
000003f0: deca f538 d579 f038 9f89 ecb8 db03 e9b8

StatefulPartitionedCall/model_1/cq_t2010v2_1/Sqrt:0 f4 [309, 1, 1]
203.08865 201.14174 199.21596 197.30687 195.4175 193.54327 191.68985 189.85257
188.03458 186.23372 184.44783 182.68279 180.93092 179.19821 177.48239 175.78111
174.09767 172.4297 170.77763 169.14195 167.52014 165.91563 164.3259 162.75134
161.19243 159.64648 158.11705 156.6046 155.1032 153.61641 152.14467 150.68842
149.24477 147.81407 146.39673 144.99655 143.6071 142.22868 140.86873 139.51703
138.18105 136.85759 135.54704 134.24605 132.9624 131.68903 130.42622 129.17818
127.937485 126.71227 125.499 124.29803 123.105644 121.92621 120.76009 119.60351
118.45674 117.320076 116.198105 115.08258 113.98245 112.88933 111.80787 110.738434
109.676796 108.6232 107.58253 106.55515 105.53198 104.52273 103.51811 102.528046
101.54802 100.57336 99.60924 98.65597 97.70875 96.77293 95.84884 94.926285
94.02127 93.1182 92.22798 91.3455 90.46546 89.599106 88.741196 87.891975
87.05171 86.21485 85.39321 84.57541 83.761566 82.95782 82.16447 81.37567
80.59776 79.82481 79.06326 78.30709 77.556435 76.811455 76.072334 75.34587
74.62573 73.91211 73.198364 72.498276 71.80529 71.11962 70.434364 69.763885
69.09414 68.43245 67.77905 67.12675 66.48308 65.84831 65.21503 64.59102
63.968742 63.356136 62.753487 62.153038 61.554855 60.967205 60.38212 59.808025
59.22837 58.660038 58.103355 57.54129 56.991226 56.444664 55.910645 55.37147
54.845238 54.313904 53.79591 53.28227 52.773098 52.268536 51.759056 51.264023
50.77401 50.289165 49.80964 49.335587 48.856934 48.394215 47.92703 47.46578
47.010635 46.561787 46.11941 45.67275 45.23273 44.799553 44.373417 43.95452
43.531597 43.116123 42.696606 42.296574 41.880783 41.484936 41.085278 40.69398
40.29888 39.912403 39.534794 39.153545 38.78144 38.405727 38.03945 37.682888
37.322914 36.95944 36.60601 36.249138 35.902645 35.566837 35.22783 34.88553
34.554306 34.21988 33.896904 33.57082 33.24154 32.924156 32.619015 32.29551
31.984371 31.685959 31.38471 31.08054 30.789608 30.495901 30.199337 29.91655
29.614185 29.342802 29.051678 28.77499 28.495613 28.231188 27.964262 27.694765
27.422619 27.166155 26.907248 26.645824 26.400757 26.134268 25.884357 25.632011
25.39685 25.15949 24.919872 24.677925 24.433584 24.207438 23.979158 23.748684
23.515951 23.280893 23.065125 22.847319 22.627417 22.405357 22.203604 21.97726
21.771542 21.563858 21.354156 21.16601 20.952328 20.76054 20.542639 20.34699
20.14944 19.974985 19.77372 19.595919 19.39072 19.209373 19.026299 18.841444
18.681541 18.493242 18.303005 18.138357 17.9722 17.804493 17.635193 17.464249
00000000: b216 4b43 4924 4943 4937 4743 8f4e 4543
00000010: e16a 4343 148b 4143 9ab0 3f43 42da 3d43
00000020: da08 3c43 d53b 3a43 a572 3843 cbae 3643
00000030: 51ee 3443 be32 3343 7e7b 3143 f7c7 2f43
00000040: 0119 2e43 016e 2c43 13c7 2a43 5724 2943
00000050: 2885 2743 67ea 2543 6e53 2443 58c0 2243
00000060: 4331 2143 80a5 1f43 f71d 1e43 c79a 1c43
00000070: 6b1a 1b43 cd9d 1943 0925 1843 3cb0 1643
00000080: a93e 1543 67d0 1343 9065 1243 1eff 1043
00000090: 6b9b 0f43 8b3a 0e43 65de 0c43 5c84 0b43
000000a0: 592e 0a43 8bdb 0843 0b8c 0743 fd3e 0643
000000b0: 60f6 0443 64b0 0343 1d6d 0243 9d2d 0143
000000c0: fedf ff42 af6c fd42 7dff fa42 9798 f842
000000d0: 1736 f642 38da f342 2b85 f142 ff34 ef42
000000e0: dae9 ec42 e1a3 ea42 6e65 e842 482a e642
000000f0: 04f7 e342 56c7 e142 a19d df42 147a dd42
00000100: 855a db42 143f d942 412a d742 3d1c d542
00000110: 6010 d342 a30b d142 4609 cf42 5c0e cd42
00000120: 9618 cb42 8f25 c942 ee37 c742 db4f c542
00000130: e16a c342 bd8b c142 9bb2 bf42 42da bd42
00000140: e40a bc42 853c ba42 ba74 b842 e5b0 b642
00000150: 51ee b442 be32 b342 7e7b b142 b1c8 af42
00000160: 7a1a ae42 016e ac42 53c9 aa42 9c26 a942
00000170: ec85 a742 67ea a542 3554 a442 58c0 a242
00000180: 0e32 a142 4da6 9f42 6420 9e42 3b9d 9c42
00000190: e51c 9b42 779f 9942 0925 9842 16b1 9642
000001a0: 6040 9542 00d3 9342 9065 9242 1eff 9042
000001b0: 4f9c 8f42 3f3d 8e42 65de 8c42 1c87 8b42
000001c0: 3330 8a42 6add 8842 e08e 8742 e540 8642
000001d0: 56f7 8442 56b2 8342 186e 8242 9a2e 8142
000001e0: fedf 7f42 af6c 7d42 9203 7b42 b69c 7842
000001f0: 2c38 7642 6bde 7342 4a87 7142 6b3b 6f42
00000200: dae9 6c42 e1a3 6a42 d669 6842 482a 6642
00000210: 04f7 6342 56c7 6142 80a4 5f42 637c 5d42
00000220: 8661 5b42 7041 5942 032f 5742 0b21 5542
00000230: a717 5342 fb12 5142 4609 4f42 5c0e 4d42
00000240: 9618 4b42 1b28 4942 123d 4742 a457 4542
00000250: 806d 4342 ad93 4142 47b5 3f42 f5dc 3d42
00000260: e40a 3c42 453f 3a42 477a 3842 e5b0 3642
00000270: 51ee 3442 be32 3342 617e 3142 6ed1 2f42
00000280: 5b20 2e42 e976 2c42 53c9 2a42 b12f 2942
00000290: ec85 2742 93f0 2542 5357 2442 a3c6 2242
000002a0: 0e32 2142 4da6 1f42 a123 1e42 3b9d 1c42
000002b0: 3220 1b42 779f 1942 6628 1842 47bb 1642
000002c0: aa4a 1542 77d6 1342 8e6c 1242 1eff 1042
000002d0: 4f9c 0f42 7144 0e42 4ce9 0c42 c88a 0b42
000002e0: 9c37 0a42 28e1 0842 6e96 0742 8548 0642
000002f0: 56f7 0442 56b2 0342 df79 0242 9a2e 0142
00000300: fedf ff41 d87c fd41 e313 fb41 f2a4 f841
00000310: 1e51 f641 9bf7 f341 3e98 f141 1855 ef41
00000320: dae9 ec41 0fbe ea41 d669 e841 2e33 e641
00000330: 04f7 e341 79d9 e141 cfb6 df41 e18e dd41
00000340: 8661 db41 4954 d941 0b42 d741 a62a d541
00000350: c034 d341 fb12 d141 2a13 cf41 5c0e cd41
00000360: c02c cb41 a346 c941 e65b c741 646c c541
00000370: fb77 c341 d5a8 c141 51d5 bf41 4efd bd41
00000380: ab20 bc41 453f ba41 6085 b841 4fc7 b641
00000390: f304 b541 2c3e b341 fba0 b141 6ed1 af41
000003a0: 1e2c ae41 c882 ac41 50d5 aa41 fd53 a941
000003b0: 5e9e a741 9615 a641 5357 a441 a3c6 a241
000003c0: 0e32 a141 c5cc 9f41 9430 9e41 71c4 9c41
000003d0: 3220 9b41 ccac 9941 dc35 9841 47bb 9641
000003e0: cc73 9541 29f2 9341 8e6c 9241 5b1b 9141
000003f0: 11c7 8f41 9a6f 8e41 e014 8d41 c8b6 8b41

StatefulPartitionedCall/model_1/conv2d_5/Conv2D/ReadVariableOp:0 f4 [1, 33, 3, 3]
0.02961926 0.24009527 0.018380845 0.022289157 0.35123602 -0.005243861 0.03644957 0.4525636
-0.004354608 0.0036040253 -0.027480764 -0.007653143 0.009230717 -0.041121498 -0.0148360515 0.011588278
-0.036972687 -0.011762905 0.033232387 0.02732815 0.0321329 0.03402345 0.03814747 0.026405143
0.026042828 0.021562215 0.012069301 0.056634538 0.07360173 0.026461544 0.036926903 0.043540023
0.022561116 0.047486868 0.03551864 0.040622856 0.052221436 -0.02111572 -0.00067148445 0.08948439
-0.030814579 -0.016013635 0.1309979 -0.012486272 0.0021851766 0.0038892652 -0.07726838 0.0058027063
0.0024596462 -0.1148852 -0.012604815 0.023185663 -0.121947534 0.0068679913 -0.020436358 -0.015140729
0.012416265 -0.03781338 -0.029034192 0.007468162 -0.032108452 -0.026304038 0.0049894424 0.038425837
0.04621383 0.023801338 -0.0064908443 -0.013081854 -0.0008421158 0.051327184 -0.06839511 -0.01438653
-0.033723496 -0.021509912 -0.008480313 -0.015260049 -0.018614544 -0.0010021698 -0.017049313 -0.059574854
0.003170289 0.033551693 -0.042176142 0.01089292 0.012478612 -0.06757229 0.0014673923 -0.0045838314
-0.07624703 0.003983921 0.0019456845 -0.029311212 0.0058015636 -0.03640825 -0.074934095 -0.0031402954
-0.032389045 -0.04646108 0.016393963 -0.0040421467 -0.013163564 -0.0032008959 -0.014480463 -0.022628471
-0.00855025 -0.014481106 -0.02215738 -0.008108915 -0.00012680986 -0.020904925 0.004013777 0.044692293
0.034807995 0.013305878 0.113405004 0.088594496 0.027575608 -0.028087104 -0.04976015 -0.014109397
-0.020555802 -0.06775157 -0.019205268 0.005636402 -0.050749946 -0.00038166728 -0.03918175 0.047729116
0.007791736 -0.03453211 0.07097033 0.0039015624 -0.02764622 0.09414442 0.013246353 -0.09790738
0.012330549 0.009723226 -0.1220861 0.010524181 0.0026528875 -0.1357356 0.026809005 0.011240651
0.0301616 -0.018315926 0.03575238 0.018596634 -0.045610733 0.017731778 0.011916091 -0.039527554
0.015601378 0.016120909 -0.055059865 -0.0061295656 -0.00085540285 -0.07149282 -0.0130122285 -0.0043513956
-0.067841224 -0.006931587 0.059542406 0.008266165 0.045220863 0.024995025 0.039878808 0.07562827
-0.009844013 0.06318665 0.07104634 -0.0022746068 -0.019050801 -0.010183258 0.012742571 -0.069945075
-0.019170275 0.11543305 -0.09937144 -0.035698064 0.030841237 -0.016979253 0.009707152 0.026150944
-0.032183282 0.0029643192 0.021071656 -0.048646215 -0.009930311 0.051614024 0.08932471 -0.04111291
0.043758668 0.08308774 -0.041819535 -0.0002149917 0.050332986 -0.042771433 -0.019394416 -0.055639505
0.0018075773 -0.023449354 -0.08588273 -0.016641738 0.012373486 -0.08980566 -0.0049966825 0.0539971
0.02883972 -0.031144785 0.009157116 0.049507923 -0.03315851 -0.015897468 0.11568524 -0.02328572
-0.019747304 -0.03136622 -0.010931423 -0.02946802 -0.057015274 -0.022573471 -0.013315209 -0.048508245
0.004121796 -0.011987936 -0.100605875 -0.020219091 0.058624405 -0.15118018 0.025004605 0.10449303
-0.230087 0.07024645 0.009352544 -0.015078275 0.003832712 -0.033476442 -0.06913248 -0.037567392
-0.011237037 -0.04406072 -0.018844575 -0.014560949 -0.018237917 -0.017476486 -0.035934 0.013735144
-0.0020523777 -0.04261192 0.035207123 0.009226425 -0.016378868 0.023935566 0.003982656 -0.0036958088
00000000: 17a4 f23c 89db 753e 6d93 963c c097 b63c
00000010: 35d5 b33e b2d4 abbb 254c 153d 6bb6 e73e
00000020: 19b1 8ebb 8331 6c3b 571f e1bc 37c7 fabb
00000030: 6f3c 173c 046f 28bd e912 73bc c3dc 3d3c
00000040: ac70 17bd 33b9 40bc af1e 083d 49df df3c
00000050: ca9d 033d 2c5c 0b3d 8640 1c3d 994f d83c
00000060: c557 d53c 3ea3 b03c 51be 453c 9ef9 673d
00000070: 81bc 963d e1c5 d83c aa40 173d 0657 323d
00000080: 17d2 b83c 9781 423d fe7b 113d 2764 263d
00000090: 25e6 553d e0fa acbc 8f06 30ba 9843 b73d
000000a0: db6e fcbc 072f 83bc 5024 063e 3893 4cbc
000000b0: 2e35 0f3b 0be3 7e3b e23e 9ebd a124 be3b
000000c0: 0432 213b ef48 ebbd 6d84 4ebc dcef bd3c
000000d0: a1bf f9bd e30c e13b 266a a7bc d210 78bc
000000e0: 976d 4b3c 34e2 1abd 1dd9 edbc 7cb7 f43b
000000f0: 2784 03bd 917b d7bc 7a7e a33b 6964 1d3d
00000100: b74a 3d3d 06fb c23c 26b1 d4bb 4655 56bc
00000110: 6fc1 5cba 743c 523d bc12 8cbd 7bb5 6bbc
00000120: a621 0abd 8e35 b0bc 03f1 0abc 4905 7abc
00000130: 877d 98bc 3d5b 83ba 00ab 8bbc c304 74bd
00000140: a0c4 4f3b 806d 093d e4c0 2cbd 3878 323c
00000150: 1873 4c3c 5763 8abd 8455 c03a f733 96bb
00000160: 6727 9cbd 8d8b 823b 5706 ff3a 111e f0bc
00000170: 0b1b be3b d120 15bd 0c77 99bd 6acd 4dbb
00000180: 60aa 04bd f94d 3ebd a24c 863c fc73 84bb
00000190: fdab 57bc 1fc6 51bb 773f 6dbc 585f b9bc
000001a0: 5916 0cbc 2942 6dbc 6583 b5bc 41db 04bc
000001b0: 43f8 04b9 ce40 abbc 0086 833b 440f 373d
000001c0: d492 0e3d e600 5a3c e240 e83d 0871 b53d
000001d0: 3ee6 e13c ed16 e6bc 4dd1 4bbd 1a2b 67bc
000001e0: a464 a8bc 56c1 8abd 5e54 9dbc 91b1 b83b
000001f0: 2ddf 4fbd 841a c8b9 0b7d 20bd 9b7f 433d
00000200: d251 ff3b 8b71 0dbd e458 913d 5bb1 7f3b
00000210: 537a e2bc cace c03d 3b07 593c aa83 c8bd
00000220: 1206 4a3c 2a4e 1f3c 4708 fabd 9d6d 2c3c
00000230: 11dc 2d3b 46fe 0abe 8f9e db3c b52a 383c
00000240: 7615 f73c 480b 96bc 1671 123d f857 983c
00000250: 52d2 3abd 3c42 913c b53b 433c a5e7 21bd
00000260: ec9c 7f3c ff0f 843c 7486 61bd 86da c8bb
00000270: 1d3d 60ba d46a 92bd 3e31 55bc 2796 8ebb
00000280: 57f0 8abd 5e22 e3bb bde2 733d cf6e 073c
00000290: 8339 393d 5ec2 cc3c f657 233d ffe2 9a3d
000002a0: c848 21bc 0168 813d be80 913d 9211 15bb
000002b0: 6d10 9cbc aed7 26bc 37c6 503c 5d3f 8fbd
000002c0: fb0a 9dbc 2a68 ec3d 4183 cbbd 2238 12bd
000002d0: c3a6 fc3c 1318 8bbc bf0a 1f3c 813a d63c
000002e0: 9ed2 03bd 0645 423b 779e ac3c 4141 47bd
000002f0: beb2 22bc 3a69 533d e0ef b63d 0366 28bd
00000300: 4a3c 333d e829 aa3d f64a 2bbd 656f 61b9
00000310: f629 4e3d 1931 2fbd 0ae1 9ebc 40e6 63bd
00000320: 3bec ec3a dc18 c0bc 49e3 afbd 4154 88bc
00000330: 29ba 4a3c 08ec b7bd 36bb a3bb 102c 5d3d
00000340: 4741 ec3c 5923 ffbc ba07 163c d2c8 4a3d
00000350: 38d1 07bd 683b 82bc 62ec ec3d b2c1 bebc
00000360: 19c5 a1bc de79 00bd b619 33bc eb66 f1bc
00000370: d988 69bd 00ec b8bc 0928 5abc 95b0 46bd
00000380: 2210 873b 0c69 44bc 740a cebd 82a2 a5bc
00000390: 2520 703d face 1abe 75d6 cc3c 7100 d63d
000003a0: ed9b 6bbe 5fdd 8f3d 6a3b 193c df0a 77bc
000003b0: 3d2e 7b3b 981e 09bd 5495 8dbd 44e0 19bd
000003c0: 8d1b 38bc 0379 34bd f05f 9abc 0c91 6ebc
000003d0: af67 95bc d92a 8fbc 882f 13bd 5f09 613c
000003e0: 2f81 06bb d689 2ebd 5835 103d 6e2a 173c
000003f0: fa2c 86bc 8514 c43c f180 823b 6235 72bb

StatefulPartitionedCall/model_1/conv2d_4/BiasAdd_weights_fused_bn f4 [32, 8, 5, 5]
-0.21944933 -0.18605122 0.1203223 -0.10963868 -0.1552203 0.05618711 0.110382296 0.0014888126
0.25290012 0.1075864 0.13990842 0.003327866 0.029195238 0.30670366 0.14387038 0.12989676
0.00012929461 -0.14301433 -0.13524127 0.011245929 -0.23306507 -0.19583543 -0.11945108 0.1450838
-0.16696572 -0.022502566 -0.14155342 -0.061301317 0.0685819 0.23101616 0.022958782 -0.34872776
-0.035911165 0.1106755 -0.12646507 0.17296812 0.1527062 0.24285668 -0.23038927 -0.38512868
0.34076816 0.058015447 0.185116 -0.23191705 -0.36194167 0.42004916 0.30580968 0.08706631
0.20062503 -0.22186616 -0.013682556 -0.08895966 -0.15486167 0.24514028 -0.11564158 -0.0573212
-0.3076244 -0.15680891 -0.009767926 0.16781047 0.24937357 -0.1374647 0.043648798 -0.02474081
0.040134374 0.16007356 0.16656208 0.12049281 -0.08361475 -0.015676921 0.23944505 0.38366044
0.2519083 0.23495248 -0.097853005 -0.08226504 -0.29102316 -0.24020807 0.13080727 -0.09167583
-0.115938514 -0.03956734 0.03216347 -0.049871188 -0.03648416 -0.14549853 0.04472926 0.026047094
0.20308313 0.06946406 0.13946496 0.21012235 -0.009607205 -0.098982275 0.016032131 0.26710063
0.20144823 0.025214765 -0.014525576 0.10801226 0.0980288 -0.15532058 -0.29608715 0.13103624
0.12130591 -0.1530693 -0.276606 0.08946303 0.14774315 -0.23708804 -0.035901137 0.008031873
0.18829994 0.21349739 -0.098708704 0.06618838 0.2177938 0.10178502 0.038250916 -0.0088859415
0.01626016 0.11234058 -0.09922955 -0.07951224 -0.077627964 0.042716388 -0.19630606 -0.075871475
-0.19579248 0.24081858 -0.06954923 0.020080931 0.06664231 0.20424736 0.095098965 -0.073180825
0.20411801 -0.07944825 -0.059721883 -0.05161525 0.17780294 0.13210598 -0.03865363 0.16685407
-0.10270879 0.10056535 -0.07607143 0.11219314 -0.13267161 -0.13307124 -0.1547738 -0.08496753
-0.09603124 -0.1806963 0.041493762 0.08160271 0.002089474 0.07557121 -0.028310033 0.1099705
0.13815731 -0.14251335 -0.0819576 -0.0046124933 0.028214946 -0.12909907 0.04896818 0.08462638
0.10036637 -0.11078105 0.08804846 0.27533865 0.06516116 0.021879414 0.001005678 0.21069494
-0.034748647 -0.16118926 -0.080669865 -0.11428394 -0.16466667 0.03201448 -0.015471095 0.08747364
-0.17768468 -0.10225557 0.11182501 0.18753348 0.13537528 0.10673892 -0.0143706985 0.25077763
-0.13324545 -0.15146033 -0.06501199 0.3495956 0.15983792 -0.050163507 0.04501071 0.023734475
0.058970477 0.11739984 0.0130652515 0.013965498 0.14525574 0.014742619 0.23469973 0.09941323
-0.14984031 -0.10660976 -0.16603446 0.12011581 -0.23501636 -0.37599978 -0.1992551 -0.045178633
0.1996015 0.048005037 -0.2569618 0.1906464 -0.13873848 0.27788517 0.12980141 -0.029196287
-0.13364597 -0.3799973 -0.19374482 -0.05091744 -0.26800156 0.15139116 -0.44790328 -0.034669522
0.0880034 -0.24386454 -0.24757363 0.20956564 -0.24866492 0.03190371 0.09070536 0.20741357
0.23794201 0.13273033 0.14912221 0.34969336 0.2716912 -0.039967462 -0.115237355 0.20469625
0.041452657 0.16573875 0.37246174 0.11976308 0.4950435 0.13086115 0.081460506 0.133909
00000000: 53b7 60be 3684 3ebe 8a6b f63d 3f8a e0bd
00000010: 12f2 1ebe 7424 663d 1d10 e23d 4324 c33a
00000020: 207c 813e 4256 dc3d 2744 0f3e 5418 5a3b
00000030: da2a ef3c 4308 9d3e c252 133e a803 053e
00000040: 4293 0739 5972 12be b07c 0abe d840 383c
00000050: 9ca8 6ebe 1589 48be c5a2 f4bd d990 143e
00000060: 10f9 2abe 4d57 b8bc 61f3 10be 1717 7bbd
00000070: ab74 8c3d 808f 6c3e 0e14 bc3c 728c b2be
00000080: 9617 13bd d6a9 e23d 0f80 01be 8e1e 313e
00000090: 045f 1c3e 6caf 783e 2aeb 6bbe 962f c5be
000000a0: 2a79 ae3e 9ba1 6d3d 0c8f 3d3e aa7b 6dbe
000000b0: 6b50 b9be af10 d73e 1693 9c3e d24f b23d
000000c0: a670 4d3e e230 63be cd2c 60bc 7b30 b6bd
000000d0: 0f94 1ebe 0e06 7b3e 7ed5 ecbd a2c9 6abd
000000e0: f280 9dbe 8492 20be a709 20bc 82d6 2b3e
000000f0: c95b 7f3e 8cc3 0cbe 15c9 323d 3dad cabc
00000100: f163 243d 53ea 233e 408f 2a3e efc4 f63d
00000110: 363e abbd e36c 80bc 1531 753e 246f c43e
00000120: 20fa 803e 6297 703e 2867 c8bd 937a a8bd
00000130: fd00 95be 1bf9 75be 57f2 053e 8ac0 bbbd
00000140: 2c71 edbd 5d11 22bd d8bd 033d bb45 4cbd
00000150: 6a70 15bd 91fd 14be 0736 373d b760 d53c
00000160: 06f5 4f3e 2c43 8e3d e7cf 0e3e 502a 573e
00000170: 8a67 1dbc 38b7 cabd d155 833c 6ac1 883e
00000180: 7248 4e3e 328f ce3c aefc 6dbc 8835 dd3d
00000190: 53c3 c83d 5c0c 1fbe bc98 97be 5d2e 063e
000001a0: 3c6f f83d 33be 1cbe 4d9f 8dbe 6538 b73d
000001b0: fb49 173e 35c7 72be 120d 13bd 1e98 033c
000001c0: b3d1 403e 0f9f 5a3e ca27 cabd c68d 873d
000001d0: 5705 5f3e aa74 d03d feac 1c3d 5796 11bc
000001e0: 0734 853c d112 e63d dd38 cbbd 50d7 a2bd
000001f0: 69fb 9ebd 61f7 2e3d 7504 49be 8162 9bbd
00000200: d37d 48be 2599 763e d46f 8ebd c480 a43c
00000210: c37b 883d 3826 513e 3fc3 c23d d4df 95bd
00000220: 5004 513e c4b5 a2bd ef9e 74bd 836a 53bd
00000230: f911 363e ca46 073e 4553 1ebd cbdb 2a3e
00000240: fc58 d2bd 35f5 cd3d 57cb 9bbd 84c5 e53d
00000250: 11db 07be d443 08be 067d 1ebe 7503 aebd
00000260: 07ac c4bd 7308 39be 5df5 293d 521f a73d
00000270: 8eef 083b 14c5 9a3d 71ea e7bc 3738 e13d
00000280: 1c79 0d3e 05ef 11be 63d9 a7bd 6624 97bb
00000290: 0823 e73c 8c32 04be dc92 483d 9850 ad3d
000002a0: e28c cd3d 2de1 e2bd c052 b43d 30f9 8c3e
000002b0: 3773 853d 753c b33c f4d0 833a 6ac0 573e
000002c0: 9954 0ebd cc0e 25be 3e36 a5bd b30d eabd
000002d0: 619e 28be 9e21 033d 7a7a 7dbc 6125 b33d
000002e0: f9f2 35be 5e6b d1bd 8304 e53d c708 403e
000002f0: d19f 0a3e ef99 da3d 1473 6bbc ed65 803e
00000300: 7f71 08be 6b18 1bbe 0225 85bd 32fe b23e
00000310: 8dac 233e 4078 4dbd 265d 383d cd6e c23c
00000320: 078b 713d 546f f03d a30f 563c 8bcf 643c
00000330: ecbd 143e 078b 713c 2055 703e 2a99 cb3d
00000340: bd6f 19be 3856 dabd f004 2abe 47ff f53d
00000350: 21a8 70be 0b83 c0be 8709 4cbe 3b0d 39bd
00000360: 5664 4c3e eea0 443d 7f90 83be cf38 433e
00000370: 7611 0ebe f746 8e3e a9ea 043e 0d2d efbc
00000380: 7dda 08be 028f c2be 0b65 46be ce8e 50bd
00000390: 8037 89be 4906 1b3e 9453 e5be a101 0ebd
000003a0: 203b b43d a0b7 79be f183 7dbe 6098 563e
000003b0: 04a2 7ebe 77ad 023d bbc3 b93d 3964 543e
000003c0: 12a7 733e 76ea 073e 7eb3 183e 020b b33e
000003d0: 1c1b 8b3e ecb4 23bd 9001 ecbd e59b 513e
000003e0: 43ca 293d 6bb7 293e 4eb3 be3e 5846 f53d
000003f0: 5776 fd3e 7700 063e c4d4 a63d 711f 093e

StatefulPartitionedCall/model_1/conv2d_4/BiasAdd_bias_fused_bn f4 [32]
-0.55445266 0.45351636 1.3920046 2.681076 1.8989643 -0.9576305 -1.7349954 0.18200126
1.172502 1.1686757 -0.4753027 -1.796571 1.2578812 0.9688961 1.727087 -1.0719255
1.1399064 -1.5433636 -2.432705 -0.31908792 -1.5639929 1.3044211 -1.048136 0.9942411
-2.2074807 1.6903069 -0.036115214 -0.40540826 0.6927939 -2.1582422 -0.9612119 0.57887244
00000000: 9cf0 0dbf 4c33 e83e 352d b23f c096 2b40
00000010: 4311 f33f 4627 75bf 5414 debf 8a5e 3a3e
00000020: 8c14 963f 2a97 953f e05a f3be 0af6 e5bf
00000030: 4002 a13f 9309 783f 3011 dd3f db34 89bf
00000040: 74e8 913f f08c c5bf 70b1 1bc0 7e5f a3be
00000050: eb30 c8bf 45f7 a63f 5229 86bf 9686 7e3f
00000060: 5d47 0dc0 fa5b d83f 8ced 13bd ac91 cfbe
00000070: f15a 313f a420 0ac0 fc11 76bf fc30 143f

StatefulPartitionedCall/model_1/conv2d_3/Conv2D/ReadVariableOp:0 f4 [1, 32, 7, 3]
0.001481341 -0.005024676 0.0019645568 -0.0044749836 -0.009747071 0.0013036483 -0.014835533 -0.018272512
-0.0041036066 -0.035013255 -0.034738164 -0.018665975 -0.018629277 -0.018684959 -0.002719433 -0.017213076
-0.015996084 0.0011495149 -0.019920003 -0.017481957 0.0031905137 -0.0010722398 -0.012609308 -0.0203546
-0.0016266882 -0.014525307 -0.023994574 -0.0052769505 -0.019214846 -0.030495625 -0.020933622 -0.03439198
-0.050039258 -0.0033636177 -0.017722111 -0.029252315 0.0017560368 -0.012535617 -0.023387592 0.00036441302
-0.013595838 -0.027086 0.008976169 -0.022178834 0.012793239 0.007504294 -0.025152152 0.0114240395
0.0049032695 -0.029581355 0.007655817 -0.0024137518 -0.041404057 -0.0013252984 0.010408216 -0.024419703
0.011258486 0.013130347 -0.023775805 0.015259203 0.009922352 -0.033723757 0.014368954 -0.012706874
-0.0068900515 0.0052611544 -0.016823037 -0.0076405606 0.0043939864 -0.022072326 -0.009930386 0.0025677467
-0.038654823 -0.021965718 -0.0071377284 -0.020443494 -0.007250974 0.0061376058 -0.018150778 -0.0047380347
0.009242481 -0.023280641 -0.0067163366 0.008493374 -0.007912647 -0.009093558 -0.009219548 -0.012147872
-0.012004896 -0.011634769 -0.022663645 -0.020089786 -0.020368785 -0.044246405 -0.03725965 -0.040133394
-0.021334726 -0.017923227 -0.016606957 -0.015903758 -0.012711659 -0.010358717 -0.01810024 -0.012735043
-0.010880624 0.015039559 -0.06624736 0.03890833 0.0017836022 -0.062588714 0.040299766 -0.006068066
-0.054264795 0.04418456 -0.0074023544 -0.043883886 0.049628247 -0.004886862 -0.03692144 0.050869476
-0.002982206 -0.037820455 0.051962666 -0.00063170225 -0.044751786 0.05337965 0.17812689 0.07376153
-0.01629938 0.19534276 0.079272054 -0.0070446515 0.20472771 0.068030626 -0.0052045966 0.2001635
0.0044875103 -0.041154202 0.18457648 0.031826574 -0.0023653281 0.15273952 0.027812151 0.026408467
0.12539427 0.00039268925 0.04406928 0.00056035066 -0.02067002 0.046491414 -0.0038650106 -0.016032457
0.0479536 -0.0031573377 -0.0055568106 0.05168861 -0.0011804161 0.004482209 0.05573914 0.0016945685
0.009427136 0.056581676 0.0032184266 0.006218118 0.057437617 0.004687235 -0.003513344 0.058418702
0.00522743 -0.020305503 0.0057421974 -0.0014068201 -0.029933592 0.0010256766 -0.0068221977 -0.037436713
-0.0017903404 -0.01900044 -0.05257248 -0.009991247 0.004800881 -0.029061718 0.00982601 0.01155222
-0.025004297 0.015503019 0.011444948 -0.02923497 0.016514184 0.009872214 -0.013574852 -0.013754131
0.010322656 -0.012435455 -0.016587995 0.00890997 -0.01404517 -0.021741707 -0.003320021 -0.029682951
-0.041609928 0.005957797 -0.018452963 -0.027933024 0.00840207 -0.016767647 -0.025801104 0.009984163
-0.01690652 -0.027597934 -0.0010907808 -0.014845304 -0.020436268 -0.0024154943 -0.017130012 -0.024944484
-0.0063921516 -0.022128351 -0.031876065 -0.023120282 -0.03916902 -0.052720867 -0.0032674673 -0.020457914
-0.029658653 0.0013706374 -0.015889335 -0.024387568 0.0027155762 -0.01440797 -0.024422094 0.085435174
0.0073649846 -0.013710016 0.08929837 0.009007431 -0.0094193835 0.08706966 0.0059212036 -0.017309174
0.09012289 0.0063955784 -0.008204846 0.07197433 0.0049233222 -0.0003010672 0.043857966 0.0061199884
0.0037542442 0.007958376 0.006000186 -0.0019552205 0.005095256 -0.014342628 -0.0013186347 0.0050307997
00000000: 8e29 c23a 0aa6 a4bb cbbf 003b e2a2 92bb
00000010: 2eb2 1fbc 2edf aa3a bc10 73bc 3cb0 95bc
00000020: 8c77 86bb 0f6a 0fbd 9b49 0ebd 63e9 98bc
00000030: 6d9c 98bc 3311 99bc 8438 32bb 7002 8dbc
00000040: 380a 83bc 52ab 963a 462f a3bc 5236 8fbc
00000050: f017 513b 668a 8cba 4597 4ebc b1be a6bc
00000060: 9936 d5ba 8efb 6dbc 4590 c4bc 45ea acbb
00000070: 7468 9dbc f6d1 f9bc fd7c abbc 9bde 0cbd
00000080: f7f5 4cbd 2470 5cbb f62d 91bc 8da2 efbc
00000090: d12a e63a 3062 4dbc 5697 bfbc b00e bf39
000000a0: 14c1 5ebc 76e3 ddbc c810 133c 63b0 b5bc
000000b0: bc9a 513c 95e6 f53b e30b cebc e52b 3b3c
000000c0: 9bab a03b 9954 f2bc a6dd fa3b 0930 1ebb
000000d0: 4d97 29bd a3b5 adba 3987 2a3c d40b c8bc
000000e0: 8375 383c ab20 573c 7ac5 c2bc bc01 7a3c
000000f0: 5c91 223c ec21 0abd c36b 6b3c 7e30 50bc
00000100: f1c5 e1bb c365 ac3b 77d0 89bc ab5d fabb
00000110: 6efb 8f3b 06d1 b4bc 0fb3 22bc a447 283b
00000120: 8554 1ebd 73f1 b3bc 9be3 e9bb 1d79 a7bc
00000130: 9499 edbb f81d c93b f1b0 94bc 8441 9bbb
00000140: c66d 173c 0bb7 bebc b714 dcbb cb27 0b3c
00000150: 0ca4 01bc 26fd 14bc 960d 17bc de07 47bc
00000160: 2fb0 44bc c29f 3ebc 1ca9 b9bc 5693 a4bc
00000170: 70dc a6bc b83b 35bd 939d 18bd ea62 24bd
00000180: 2ac6 aebc bbd3 92bc 500b 88bc 9948 82bc
00000190: 9044 50bc 9cb7 29bc f446 94bc a4a6 50bc
000001a0: a544 32bc 7c68 763c b2ac 87bd 575e 1f3d
000001b0: c2c7 e93a 832e 80bd 5e11 253d a1d6 c6bb
000001c0: c344 5ebd dffa 343d 738f f2bb 97bf 33bd
000001d0: fd46 4b3d f821 a0bb f03a 17bd 835c 503d
000001e0: 1d71 43bb 9fe9 1abd ced6 543d d298 25ba
000001f0: a64d 37bd 9fa4 5a3d e566 363e 4910 973d
00000200: 4786 85bc ef07 483e 6359 a23d d2d6 e6bb
00000210: 24a4 513e a453 8b3d 528b aabb a9f7 4c3e
00000220: f70b 933b 4f91 28bd 9e01 3d3e 955c 023d
00000230: 9f03 1bbb c067 1c3e 4fd6 e33c 9256 d83c
00000240: 5b67 003e dce1 cd39 fd81 343d 7fe4 123a
00000250: 2c54 a9bc c86d 3e3d 1e4c 7dbb 8056 83bc
00000260: fe6a 443d 56eb 4ebb e815 b6bb 70b7 533d
00000270: 31b8 9aba 7fdf 923b b94e 643d 491c de3a
00000280: 4674 1a3c 30c2 673d 3dec 523b 5bc1 cb3b
00000290: b543 6b3d 6197 993b 2240 66bb 7348 6f3d
000002a0: dc4a ab3b ba57 a6bc 0b29 bc3b 0d65 b8ba
000002b0: 4b37 f5bc ff6f 863a be8c dfbb 3d57 19bd
000002c0: dba9 eaba d0a6 9bbc 3e56 57bd 54b2 23bc
000002d0: b550 9d3b d712 eebc 46fd 203c 8645 3d3c
000002e0: d0d5 ccbc 6000 7e3c 9783 3b3c 2d7e efbc
000002f0: c148 873c 11bf 213c 0e69 5ebc 0259 61bc
00000300: 5b20 293c 14be 4bbc 8ce3 87bc 1ffb 113c
00000310: b61d 66bc aa1b b2bc b694 59bb a929 f3bc
00000320: 2c6f 2abd a039 c33b ab2a 97bc ccd3 e4bc
00000330: d6a8 093c 4e5c 89bc d65c d3bc 9d94 233c
00000340: 8b7f 8abc 1015 e2bc 88f8 8eba b839 73bc
00000350: f669 a7bc 454d 1ebb 3d54 8cbc 6058 ccbc
00000360: 4175 d1bb 8446 b5bc 7a90 02bd bf66 bdbc
00000370: b26f 20bd d6f1 57bd 0123 56bb 5b97 a7bc
00000380: b4f6 f2bc f6a6 b33a 5a2a 82bc 70c8 c7bc
00000390: cff7 313b 680f 6cbc d810 c8bc a3f8 ae3d
000003a0: f855 f13b fa9f 60bc 10e2 b63d e793 133c
000003b0: c253 1abc 9451 b23d a806 c23b f8cb 8dbc
000003c0: 5a92 b83d 0092 d13b 9e6d 06bc 4767 933d
000003d0: d253 a13b 8ed8 9db9 69a4 333d 2f8a c83b
000003e0: c409 763b d963 023c 359d c43b 2823 00bb
000003f0: 1bf6 a63b 58fd 6abc 0ad6 acba 68d9 a43b
